model/s_bert_classifier_head.pt (torch, 29938 bytes, 2 tensors)

weight f4 [3, 2304]
000000 0e f0 99 bc f0 d8 ad ba 33 de 36 bc 5e b1 a5 bc
       -0.018791225 -0.0013263505 -0.011161375 -0.020226177
000010 e1 e6 a8 3c 36 c2 00 bc 30 03 86 bb 05 2e 93 3c
       0.020617904 -0.0078588035 -0.0040897354 0.01796628
000020 07 4d 8c 3c cb fb 88 3c 0b 8b 81 3c 42 04 72 3c
       0.017126573 0.016721627 0.015813371 0.014771523
000030 76 7d 54 3c ef ca 81 3c 90 03 5d bc ea cf 4d 3c
       0.012969365 0.015843837 -0.013489619 0.012561778
000040 da 66 74 3c 90 36 27 bc c0 ab e2 b9 62 5e 09 3c
       0.0149171 -0.01020588 -0.00043234043 0.008384319
000050 0a 66 7c 3c b0 b2 b0 bb da be 72 3c 00 70 b5 37
       0.015405187 -0.005392395 0.01481601 2.1629035e-05
000060 00 06 1f 3b 21 17 8e 3c 00 fa 18 3c ae 12 02 bc
       0.002426505 0.017345013 0.009336948 -0.007939024
000070 e4 d4 9d bb f0 04 ff bb cc 49 b6 3b 26 74 1d 3c
       -0.0048166383 -0.007782571 0.0055629965 0.0096102115
000080 26 00 33 bc ce 72 31 3c 12 10 21 3c 3d ab a6 3c
       -0.010925328 0.010830594 0.009830492 0.020345325
000090 b0 d1 49 bc 16 98 48 3c 30 f8 12 bc 54 56 d3 3b
       -0.01231806 0.012243291 -0.008970305 0.0064495
0000a0 80 00 5f 39 aa 4a 61 3c 8a 4f 2f 3c 60 5c bd bb
       0.00021267124 0.013750711 0.010700116 -0.005778834
0000b0 52 fd 35 3c 12 5f 6b 3c fd 0b 93 3c b0 b0 95 bb
       0.01110776 0.014365928 0.017950052 -0.004568182
0000c0 0d 55 84 3c de 0a 3d bc 5e 09 22 bc 26 2a bb bb
       0.016153837 -0.0115382355 -0.009889929 -0.0057118116
0000d0 b3 88 5e bc b3 54 1c bc 80 69 ca 3b 80 b8 e1 ba
       -0.013582396 -0.009541678 0.0061771274 -0.0017221123
0000e0 85 9d a2 3c e6 05 56 3c a7 25 90 3c 2f 1a 8d 3c
       0.019850502 0.01306293 0.017596079 0.0172244
0000f0 9e b0 7f bc 82 e6 38 3c 26 44 42 bc b3 06 a0 bc
       -0.015606074 0.011285426 -0.011857068 -0.019534444
000100 00 24 c3 b8 72 a1 59 3c 9a 16 33 3c be 28 94 bc
       -9.30503e-05 0.0132831205 0.010930682 -0.018085834
000110 76 9f 6b bc 5a 72 66 3c 90 5c ea 3b 27 4c 87 3c
       -0.01438128 0.0140653495 0.0071521476 0.016515804
000120 30 02 a6 ba 67 25 88 bc 5c ee f3 bb d2 7b 59 3c
       -0.0012665447 -0.016619397 -0.007444186 0.01327415
000130 60 47 5c 3a cd 8a 86 3c 47 79 a3 3c f8 0e 61 bc
       0.00084029697 0.016423607 0.01995529 -0.013736479
000140 e8 91 0d bc 5a b2 42 3c 6b a5 a0 bc 75 7d a3 3c
       -0.008640744 0.011883343 -0.019610127 0.019957284
000150 93 df 8f 3c 36 1b 3b 3c 48 13 11 bb 98 d0 54 bc
       0.017562663 0.011420062 -0.0022136737 -0.012989186
000160 ea 39 30 3c c8 e3 18 3c 3c 64 9e bc 60 77 af bb
       0.010755995 0.009331651 -0.019334905 -0.005354807
000170 ba fb 7e 3c f7 40 8a 3c 89 6b a9 3c 50 ed 1c 3c
       0.015562946 0.01687668 0.02068116 0.009578064
000180 b9 0f 97 3c 68 d0 12 3b 34 6f 94 bc 98 c5 07 bc
       0.018440114 0.0022402052 -0.018119432 -0.008286856
000190 16 66 6f bc 3e 11 44 3c 52 14 5a 3c 62 09 0d 3c
       -0.0146117415 0.0119670015 0.013310509 0.008608194
0001a0 c6 b0 f5 bb 38 89 3e bb e8 b6 21 bb c4 df 8d bb
       -0.0074978797 -0.0029073488 -0.002467567 -0.0043296535
0001b0 3c 52 9b bb ea d0 a2 bc cb e5 9d bc f2 da 30 3c
       -0.0047400277 -0.019875009 -0.019274613 0.010794388
0001c0 20 72 0c ba 96 a0 19 bc 26 6b 59 3c 1e 22 75 3c
       -0.0005357582 -0.009376666 0.013270175 0.014961747
0001d0 8e 5b 63 bc b0 da db bb ce 0a 0a 3c 82 9c 62 3c
       -0.013876809 -0.006709419 0.008425428 0.01383126
0001e0 48 fb 06 3b 16 59 55 3c 70 56 e8 3b aa ab 2a 3c
       0.0020596553 0.013021728 0.0070903823 0.010416904
0001f0 aa c4 3d 3c 38 a5 15 bb 28 09 0c 3b 76 fb 1c bc
       0.011582533 -0.0022834074 0.0021367762 -0.009581437
000200 40 a1 52 3b 80 1a 25 bb 28 f8 15 bb a6 30 72 3c
       0.003213957 -0.0025192797 -0.0022883508 0.0147821065
000210 48 39 1d 3b 88 f1 0b 3b 7c b9 8a 3b be 82 a8 bc
       0.002399044 0.002135368 0.0042335372 -0.020570155
000220 7b 0a 9b 3c 6b 51 a6 3c 80 29 f3 ba ee 20 63 3c
       0.018925896 0.020302495 -0.0018551797 0.0138628315
000230 48 fd 1e bc f3 46 a3 3c 20 bd 33 ba c6 a9 a3 bc
       -0.009703942 0.019931292 -0.000685649 -0.019978415
000240 30 5f e3 bb a0 b5 69 3b 03 96 3c bc 9e 5e a1 bc
       -0.0069388375 0.0035661235 -0.011510375 -0.019698437
000250 70 3f ae ba 2b 3c 66 bc 66 18 c1 bb 00 b4 9b 3a
       -0.0013294052 -0.014052431 -0.005892801 0.0011879206
000260 09 20 87 3c 74 96 d6 3b 93 f4 9c 3c 5c c2 f7 bb
       0.016494768 0.006548697 0.01915959 -0.0075610112
000270 06 da f2 bb ac 3c d7 bb 97 62 89 bc 2b 79 27 bc
       -0.0074112443 -0.006568512 -0.016770644 -0.01022176
000280 8f f9 a3 bc fd a2 8b 3c 40 ec 0e bb 8a d7 3e 3c
       -0.02001646 0.017045492 -0.0021808296 0.011648068
000290 43 7f 38 bc 1e 6d 18 3c 7c 05 9c 3b b4 86 f4 3b
       -0.01126081 0.009303359 0.004761396 0.007462347
0002a0 a8 e0 0e bb 00 a9 07 3a 70 27 98 ba 70 5d 98 bb
       -0.0021801386 0.0005175024 -0.0011608433 -0.0046498105
0002b0 18 7d 5d bc 70 5f 2c bc 63 20 93 3c 4f 3a a5 bc
       -0.013518594 -0.010520801 0.01795978 -0.020169405
0002c0 11 e8 8f 3c 28 bd 9a bc be 83 a1 bc b6 ec 00 3c
       0.017566713 -0.018889025 -0.01971614 0.007868936
0002d0 e7 e3 a0 bc 64 e5 8d bc aa 38 71 3c 98 ad 7d 3b
       -0.019639922 -0.017321296 0.014722982 0.0038708206
0002e0 26 f8 6c bc d8 b9 7f 3b 14 1c c4 3b 98 2b 13 bb
       -0.01446346 0.0039020684 0.0059847925 -0.0022456404
0002f0 ac 8d f9 bb 2a 74 40 3c 06 af 75 3c 8c 39 9b 3b
       -0.0076157656 0.011746446 0.014995342 0.0047370847
000300 56 43 1b bc 29 8c 9d 3c 0a 0d 6c 3c 16 b7 53 3c
       -0.009476503 0.019231873 0.014407406 0.012922069
000310 20 7a 00 3c 95 ad 9a 3c 80 55 2e 3a 54 89 95 bb
       0.007841617 0.018881598 0.0006650314 -0.00456349
000320 ae 34 7b bc 7e b2 2c 3c 3c a2 a3 3b f0 fd e3 ba
       -0.015332384 0.010540603 0.004993705 -0.0017394405
000330 79 1c a5 3c 10 a9 d3 bb be 14 8d bc 80 27 6c bc
       0.020155178 -0.006459363 -0.017221805 -0.014413714
000340 02 18 10 3c 0e 18 07 3c 33 df 9e 3c ae 35 48 3c
       0.008794786 0.008245481 0.019393539 0.0122198295
000350 c6 dd 15 3c 36 97 76 bc 9d 0b a1 3c f8 79 12 bc
       0.009147113 -0.0150507 0.019658858 -0.008940212
000360 d8 4c 35 bc 58 26 74 3b b6 a0 3c 3c 2b c4 5b bc
       -0.011065684 0.00372543 0.011512926 -0.013413469
000370 3e e0 7a 3c 5a 96 0c 3c 4b a4 7e bc 5b 69 6f bc
       0.015312253 0.0085807685 -0.0155421 -0.014612521
000380 48 ef 2e bc ed fc 8c 3c 94 b7 96 bb f3 72 1a bc
       -0.010677166 0.017210448 -0.004599521 -0.00942682
000390 00 c3 ee bb c7 ba 89 3c 00 fe 30 ba 60 d1 27 bc
       -0.0072864294 0.016812695 -0.0006751716 -0.01024279
0003a0 fc 5f fa 3b ae d4 78 bc 88 12 31 3b 98 11 74 bb
       0.0076408368 -0.015187426 0.0027019102 -0.0037241932
0003b0 7a 25 a1 bc 03 e6 7b bc 40 c4 dd 3b a0 a6 3e bc
       -0.01967119 -0.015374663 0.0067677796 -0.011636406
0003c0 e0 d7 b9 3b bd 7a 8d 3c db f3 73 bc 5a 0a 80 bc
       0.0056714863 0.01727044 -0.014889683 -0.015629936
0003d0 40 89 e8 39 78 6f 58 bc 76 14 2d bc bb f0 61 bc
       0.00044352747 -0.01321017 -0.01056396 -0.013790305
0003e0 96 03 88 bc 80 bd 5e bb c6 c1 1d 3c 67 47 9a 3c
       -0.016603272 -0.0033987463 0.009628719 0.018832875
0003f0 28 06 1e bb 44 eb 96 bc 8e d3 95 bc c0 da 5a 3b
       -0.0024112556 -0.01842273 -0.018289354 0.0033394545

bias f4 [3]
000000 18 c9 50 bc 51 88 88 3c 18 ae 53 bb
       -0.012743257 0.016666563 -0.0032299813
